model_latest.pth (torch, 92430 bytes, 16 tensors)

conv1.weight f4 [8, 1, 3, 3]
000000 c1 12 17 be 8b cc 29 be 57 29 a0 3c dc 22 09 bd
       -0.14753248 -0.16581933 0.019550962 -0.03348051
000010 1a 5a 43 be ab e1 1f be 65 c6 e7 bd 54 db c7 bd
       -0.1907734 -0.15613429 -0.11317138 -0.097586304
000020 f8 5b 93 3e 6f 58 44 3e ec c2 99 be 51 1d 9a be
       0.28781104 0.1917436 -0.30031526 -0.30100492
000030 0e 4d 97 3e bc e7 96 bd 20 7d ad 3d 34 8c 9d bd
       0.29550976 -0.073684186 0.08471131 -0.07692757
000040 3e 7b 75 3e 81 e1 32 bd a3 ec 6d 3e 90 e3 cb bd
       0.23972794 -0.04367209 0.23234801 -0.099555135
000050 41 f5 79 be 15 b0 73 3e 62 2a 28 be ec a4 1e 3e
       -0.24409963 0.23797639 -0.16422418 0.154926
000060 99 f9 21 3e e1 9e a5 3d 77 80 45 be f0 2b 95 be
       0.1581787 0.08086944 -0.19287287 -0.29135084
000070 7a b8 52 be 7d 76 9c bd 17 37 72 3e 22 c7 66 be
       -0.20578185 -0.07639787 0.23653828 -0.225369
000080 90 67 80 be ee 9e 91 be 8c ac a7 bd 04 b6 a7 be
       -0.25079012 -0.28441566 -0.081872076 -0.32756054
000090 37 65 48 be fd 8f ef 3d f7 bc ac bd a4 39 0a be
       -0.1956986 0.116973855 -0.0843448 -0.1349855
0000a0 e4 9b dd bd 0e 21 88 be ad c7 5e 3e 3f 5d 43 3d
       -0.108207494 -0.2658772 0.21755858 0.04769635
0000b0 4e bd 6e 3e ef 7a 78 3e 7f ce e2 bd 78 63 29 bd
       0.23314402 0.24265645 -0.11074542 -0.041354626
0000c0 b6 fd 93 3e 62 0c 4e 3e 09 d4 76 3e e5 8c 15 3e
       0.28904504 0.20121911 0.24104322 0.14604528
0000d0 1a fe 43 bd 2e e2 b0 be 15 3e 38 3e 00 65 72 be
       -0.047849752 -0.3454756 0.17992432 -0.23671341
0000e0 f3 c6 81 3d 71 be 67 3e 40 26 9b 3e 54 9b 74 3d
       0.06336775 0.22631241 0.3030262 0.059718445
0000f0 e2 c3 7e bd 0a 49 b9 3c 28 1e 4a 3e 17 e8 44 3e
       -0.062198527 0.022617836 0.19738066 0.1922916
000100 9e e7 b4 bd 0e 75 13 be d5 26 5c be a7 8b ca 3d
       -0.0883324 -0.14400122 -0.21499188 0.09889918
000110 55 bc 38 bc e3 ec 47 3e 62 f9 4e 3e d3 25 0b 3e
       -0.011275371 0.19523959 0.2021232 0.13588648

conv1.bias f4 [8]
000000 5c 81 6c 3d 7a 31 03 bd 77 fb 61 be a3 81 99 3d
       0.057740554 -0.032029606 -0.22068582 0.07495429
000010 76 6d 9c be 3d 34 25 3e 35 5f 6a 3e a8 ce 9a be
       -0.30552262 0.16133209 0.22887881 -0.3023579

conv2.weight f4 [16, 8, 3, 3]
000000 6b 09 2c 3d 05 8d f0 3c dd 4c a8 bc de 35 8b bd
       0.04200117 0.029364118 -0.020544464 -0.06797384
000010 68 a2 15 3d 17 d3 0e bd 86 98 88 bd f7 a7 89 3c
       0.036531836 -0.03486928 -0.066697165 0.016803725
000020 6a 9c 8c 3d 80 e0 1d bd d4 ca 50 3d ea 53 31 bd
       0.06865771 -0.038544178 0.050974682 -0.043292917
000030 d1 b6 14 3e 95 ab c3 bb 49 8f 90 3d 43 46 3b bd
       0.14522864 -0.005971382 0.070585795 -0.045721304
000040 6f 3a e7 3d b2 c4 08 bc 5c 06 85 3d 75 32 75 bd
       0.11290442 -0.008347677 0.064953536 -0.059862573
000050 3b b0 0b be 50 6c 85 3d 2a f3 e0 3d b1 1d cb 3b
       -0.13641445 0.065147996 0.1098388 0.006198608
000060 0d 8b 6d 3c c3 64 be bd 0b 60 4e 3d 6a 7a de ba
       0.014498484 -0.092965625 0.050384562 -0.0016973738
000070 81 13 4a bd 89 13 b6 3d 91 1c 08 3d d3 55 0e 3d
       -0.049335007 0.08890445 0.033230368 0.034749817
000080 44 72 d5 3d 0b 51 ae 3d 4a 12 58 3c 1c 41 ab bd
       0.10422185 0.085115515 0.013187954 -0.08362028
000090 c3 63 35 3d 99 f6 04 bd 81 3c 30 3c d3 c7 bf 3c
       0.044284593 -0.032461736 0.010756613 0.023410713
0000a0 fb 22 e3 3d c3 03 f8 3d 16 bf 97 bd 9e 59 ac bd
       0.11090656 0.121100925 -0.074094936 -0.084155306
0000b0 a6 8c 0e 3e fa 2e 3c bd d9 42 8e bd 47 ea 38 3c
       0.1392084 -0.045943238 -0.06946344 0.011286325
0000c0 3a 81 51 3d 5e 3a b1 bc 59 c9 d8 bd dc fb 8e bb
       0.05114863 -0.021634277 -0.10585279 -0.00436352
0000d0 1c e9 c6 3d 05 06 91 bd 73 25 77 3d 04 76 b2 3d
       0.09712431 -0.07081226 0.06033845 0.08713916
0000e0 dc 6a 1f bd f1 09 b2 3d 7a 0a 40 bc 9f d1 04 be
       -0.03892027 0.086933024 -0.011721248 -0.12970589
0000f0 31 74 26 bd 8f f9 8f 3d 1b 66 ae 3d 24 5e c0 3c
       -0.040638153 0.070300214 0.08515569 0.02348239
000100 16 10 9b bc 73 69 d1 bb ea 4e 05 3e 24 4a 00 3d
       -0.018928569 -0.0063907444 0.13018385 0.031320706
000110 bb bf da 3d 33 35 21 bd 9b 4e 2c 3d 36 b6 c0 3d
       0.10681101 -0.039357375 0.04206715 0.09409754
000120 59 d9 04 bd ae bd 0c bd ca 1d a8 3b b4 0a 8d bd
       -0.03243384 -0.03436058 0.0051305043 -0.06886807
000130 73 94 4f 3c 07 67 1f bd fe a5 3d bd 70 13 a4 bd
       0.01266967 -0.038916614 -0.04630088 -0.0801152
000140 90 61 71 3d 13 c5 4d 3c 63 15 be bd ed 97 98 3d
       0.058930933 0.012559193 -0.09281423 0.074508525
000150 aa 02 80 3d e6 11 57 3a f9 a7 83 3d 96 69 93 3d
       0.06250508 0.0008204266 0.064285226 0.07197873
000160 3d 67 17 3d ca 77 e0 3d f1 59 d0 bc 28 19 8f bd
       0.03696369 0.10960348 -0.025433512 -0.0698722
000170 16 79 de 3c ef fc 92 bc ff 5f 7b 3d a2 9c ea 3d
       0.027157348 -0.017942874 0.061370846 0.114556566
000180 58 38 8e 3d 8d 31 9b 3d 8b d3 a5 bd 0b 33 f1 3d
       0.069443405 0.075778104 -0.08096989 0.11777314
000190 91 4b 9d 3b ee 61 86 3d 07 60 61 bc 8d e4 1f 3d
       0.004800268 0.06561647 -0.013755805 0.039036322
0001a0 f7 82 a8 bc 32 3e 6e bd f8 87 26 3e 11 44 cf bd
       -0.020570261 -0.058164783 0.16262805 -0.101204045
0001b0 a0 a3 ed bd 0f 3b dc bd b7 e0 49 bc 21 bd 7e bd
       -0.116034746 -0.10753452 -0.012321643 -0.062192086
0001c0 bd 83 e3 bd 17 bf ea bd 8f df d8 bd 38 a6 a8 3c
       -0.111091115 -0.11462229 -0.105895154 0.020587072
0001d0 5a 47 a8 bd 01 9c 06 3c bd a5 0a bd 92 3c b3 bb
       -0.08216734 0.008215905 -0.033849467 -0.005469867
0001e0 09 21 a9 bd 9d c3 a4 3c 23 40 97 3d 33 bd dc bd
       -0.08258254 0.020112807 0.0738528 -0.107782744
0001f0 05 d2 c0 bd ed b5 48 bc 75 33 00 ba 35 43 07 bd
       -0.09415058 -0.012250406 -0.000489048 -0.033023078
000200 8d 89 6c bd 4f 9c 49 3c be ea 95 bd 99 4a 14 3d
       -0.057748366 0.012305333 -0.07320164 0.036203954
000210 9d 86 03 3e 21 10 8c 3d 6f 72 0d 3e f1 02 57 bd
       0.1284432 0.06839014 0.13813184 -0.05249304
000220 ac b2 9c bc aa 0e 6c 3d 87 cd 86 3c 61 3a 43 bd
       -0.019128166 0.057631172 0.016455425 -0.047663096
000230 c8 1c 94 bc 40 5f 0f bd 80 e9 5f 3d 7c 3f a0 3d
       -0.01808013 -0.035002947 0.054666042 0.07824609
000240 1f 6e 41 bd b9 11 31 bd 4c 4e 75 bd ff ed 06 be
       -0.04722416 -0.043229792 -0.059889123 -0.13176726
000250 51 4d bb bd 36 51 de bd 84 45 f0 bc 99 da 98 3d
       -0.09145606 -0.108553335 -0.029330023 0.07463569
000260 3f 6d df bc 63 7b e1 bc 7f bc 99 3c 1f 6f 14 3d
       -0.027273772 -0.027524656 0.01876664 0.036238786
000270 44 c2 67 3d 15 b8 23 bd 36 94 56 bd 3e fc 1f bd
       0.05658175 -0.039970476 -0.05238744 -0.039058916
000280 4e 9d 8a 3d 41 53 44 3d e8 ad 29 3d aa 44 ba 3d
       0.06768285 0.04793096 0.041425616 0.09095128
000290 99 ff 54 bd c7 6b 8d 3c d6 38 5c bd 86 56 e3 bc
       -0.05200157 0.017263306 -0.05376514 -0.027751219
0002a0 aa 32 a0 bd 29 ca ff bd a8 62 e4 3c 9c 23 b2 3c
       -0.078221634 -0.12489731 0.027879074 0.021745495
0002b0 12 17 1b 38 a5 fa e3 3d 1a 1c bf bd 69 b1 b3 bd
       3.6976366e-05 0.11131791 -0.09331532 -0.08774073
0002c0 fd 5d 9e bd f9 a4 cf 3d 44 d0 c6 3c 90 5f b7 3d
       -0.077327706 0.10138888 0.02426923 0.08953774
0002d0 86 77 32 3c b9 78 65 3d 2a 44 8d bb 07 ff 62 bd
       0.010892754 0.056023333 -0.0043111043 -0.055418994
0002e0 18 4b bd 3d 62 d9 31 3d cc be ca bc 50 aa 4f 3d
       0.092428386 0.043420203 -0.024749182 0.050699532
0002f0 94 c8 0f 3e 74 43 86 3d 1a dc 5a 3d 5a 57 a6 3c
       0.14041358 0.065558344 0.05343256 0.020305324
000300 e4 4c 01 3d 6e d7 ea bc 62 a6 9e bd 12 d2 ce bd
       0.03156747 -0.028667178 -0.07746579 -0.100986615
000310 65 3d 81 bd c4 fa 85 bd 47 e8 67 3d e1 05 df 3d
       -0.06310538 -0.0654197 0.056618 0.10889793
000320 1a c7 e3 3d 02 6e 3c bd 02 30 8e 3d 99 4b c8 3d
       0.1112196 -0.04600335 0.069427505 0.09780044
000330 3b b6 44 bd 57 f9 96 bd f4 b7 b6 bd c4 2c 5e 3d
       -0.04802535 -0.073717766 -0.08921805 0.05424191
000340 4a f4 08 3e 35 dd 9e bd 2e 82 24 bd f8 e6 23 3d
       0.13374439 -0.07757036 -0.04016321 0.04001519
000350 00 b2 68 3d 07 5a 23 3d 98 4c 4a bc 39 1c 6f 3c
       0.05681038 0.03988078 -0.012347363 0.014594131
000360 44 60 04 3d 89 02 12 bd 03 71 9a bd 51 b5 8b 3b
       0.03231837 -0.03564695 -0.075410865 0.004263558
000370 d6 1c e3 3d b5 ec 00 3e 8e 50 1e bc da d9 b7 bd
       0.110894844 0.12590297 -0.00966276 -0.08977099
000380 5a f6 aa 3c 27 53 fa 3d aa c7 04 3e 06 00 90 3d
       0.020869423 0.12222891 0.12966791 0.070312545
000390 7b d2 cc 3d 8b 2e 2f 3d 0b ab 99 3d 1b 25 08 bd
       0.100010835 0.042768996 0.07503327 -0.03323851
0003a0 99 b3 c9 bc 9e 2a 2a bd 64 24 08 3e b0 3a e5 3b
       -0.024621772 -0.04154455 0.13295132 0.0069955215
0003b0 1f 5c 37 3d e8 3e fc 3d 21 51 95 3d d9 56 40 bd
       0.044765588 0.12316686 0.07290865 -0.046957824
0003c0 b2 74 15 3e 00 a9 fb 3b de dd 1f 3d 31 e0 17 bd
       0.14595297 0.0076800585 0.03902995 -0.03707904
0003d0 86 53 8d bc 9d b3 7a bc f9 ea d0 3d 48 3d ad 3d
       -0.017251741 -0.015301612 0.102010675 0.08458954
0003e0 dd 32 20 3e 71 57 3a 3d a3 2c c9 3d 7c 8e 13 3e
       0.15644403 0.045493547 0.09822967 0.14409822
0003f0 bf 06 a3 bd 25 d5 94 bd 97 b3 14 bd f8 a5 c9 3d
       -0.07960271 -0.072672166 -0.036304083 0.09846109

conv2.bias f4 [16]
000000 cc 81 71 3d 78 9c 82 bd 24 cf 80 bd f7 b0 99 3d
       0.058961675 -0.063775 -0.06289509 0.075044565
000010 56 70 4f 3d 91 a4 a7 bd 4a 26 ad bc 4d d1 97 bd
       0.05064424 -0.081856854 -0.021136422 -0.07412968
000020 74 70 19 bd f9 cc 9c 3c 20 24 a9 bd 00 44 9e bb
       -0.03746076 0.019140707 -0.082588434 -0.0048298836
000030 f4 fa 98 bc 82 03 a7 3d af 5d f3 3c 36 d3 2d 3d
       -0.018674351 0.08154966 0.029707758 0.042437755

conv3.weight f4 [32, 16, 3, 3]
000000 ba 00 24 bd e1 0a 35 bc b9 03 4b bd 1c 4d d4 bd
       -0.040039755 -0.011049957 -0.049564097 -0.1036627
000010 c8 77 73 bd 2b 30 dc 3c 45 9a 31 bd c5 87 fb bc
       -0.059440404 0.026878437 -0.043360014 -0.030704388
000020 61 16 23 be af ff c6 3d 4e b9 49 3d 0f 20 31 3d
       -0.15926506 0.097167365 0.049248986 0.043243464
000030 af d7 19 bd 11 00 c0 3c ce e8 32 3d dd 10 81 bd
       -0.037559208 0.023437532 0.04367905 -0.063020445
000040 34 da 8a bd 02 8c c3 bd 6a 83 b1 bd 8c 44 27 bd
       -0.067799 -0.09548189 -0.08667643 -0.040836856
000050 78 e7 a7 3c da ea a0 3d 7e 8e ec 3d 91 1d f5 3d
       0.020496115 0.078572944 0.11550616 0.1196853
000060 78 56 a0 bd e7 13 39 3c df 58 9e 3d 44 2e 9b 3d
       -0.078289926 0.011296249 0.077317946 0.07577184
000070 6b 15 cf 3c 7f 1b 74 3d c1 c3 7b bd eb 44 0e 3c
       0.025278768 0.059596535 -0.061465982 0.0086834235
000080 ce 07 11 3d 82 16 09 3d 98 14 4a bc 88 8a 9a bd
       0.035407834 0.03346873 -0.0123340115 -0.07545954
000090 e5 4f f4 bb 4a 64 ad 3d e8 65 b0 3d 14 72 c3 bb
       -0.007455813 0.08466394 0.08613187 -0.005964527
0000a0 c3 09 b3 3d e1 07 be 3d 31 7a 24 3d 56 07 f3 bc
       0.08742096 0.092788465 0.040155593 -0.029666584
0000b0 ab 8f 43 bd 42 99 13 bc 56 76 3c 3d c0 78 5f bc
       -0.047744434 -0.0090087075 0.04601129 -0.013639629
0000c0 f4 06 36 bd b2 e9 a1 bd f2 ab 66 bd e1 db 13 3c
       -0.044440225 -0.07905902 -0.056316324 0.009024591
0000d0 6d 10 fc 3c 38 8e ad 3d 62 b4 3a 3d c7 d8 89 3d
       0.030769551 0.08474392 0.045582183 0.067308
0000e0 1d 5a 00 bc 42 1a ff bb 32 59 00 3e b7 bf 20 3d
       -0.007833985 -0.0077851126 0.12534025 0.039245334
0000f0 db ba fb bd 5b e1 e7 bd 2e c9 5d bd 06 c8 43 bb
       -0.12291499 -0.1132228 -0.054146938 -0.0029873862
000100 78 39 41 3d e1 8e 90 3d a0 0d b3 bd 1e 26 fd 3c
       0.047173947 0.07058502 -0.08742833 0.030901965
000110 b3 16 c2 bb 3d f3 d2 bd 76 29 e5 3c 0d 03 69 bd
       -0.005923116 -0.103003 0.027973872 -0.056887675
000120 9e 07 cc bc a0 ed 80 3d 9c 74 78 bb 3e 38 ac bd
       -0.024905976 0.06295323 -0.0037911301 -0.08409165
000130 f1 0a 3f 3d e7 55 74 bc db 65 ae bc 47 0c 81 3d
       0.046641294 -0.014913059 -0.021288803 0.0630117
000140 0a ca 98 bd 1e e4 27 bd 97 d5 ac 3d cc 92 28 bd
       -0.07460411 -0.040989034 0.084391765 -0.04115562
000150 8a ce 06 bc f2 8c 51 3d 2c 50 a5 bc f6 10 9c bd
       -0.008227954 0.051159807 -0.02017983 -0.076204225
000160 c8 db be bd 7e 31 93 bd 94 16 40 bd 1e f5 5e 3c
       -0.09319264 -0.07187174 -0.046896532 0.013608245
000170 b7 79 b6 3d f8 2c c2 3c 76 63 86 bd a3 19 a8 3d
       0.08909934 0.023703083 -0.065619394 0.08208015
000180 3c 71 fa bc ee 73 3c 3b fd fc 4d bd 08 a9 8f bd
       -0.030571572 0.0028755623 -0.050290097 -0.07014662
000190 26 34 0b 3d ef ec 52 3d 2a 12 ad bc d5 26 ba bd
       0.03398528 0.05149549 -0.021126825 -0.09089438
0001a0 f7 0f ce bc fd 71 95 bd e9 6a 3e bd 8c 4a f9 bd
       -0.025154097 -0.07297132 -0.046488676 -0.12172422
0001b0 de de 65 bc 12 75 9a bd 62 66 d0 bc 6d fe 02 be
       -0.014030186 -0.07541861 -0.025439445 -0.12792368
0001c0 3a bb 05 bd 82 4d e1 3c 50 74 4a bd b3 42 4a bc
       -0.032649256 0.027502779 -0.04942733 -0.012345004
0001d0 0b 07 bf bc 20 91 10 ba 9b 21 b7 bc 87 63 e9 3d
       -0.023318788 -0.00055147894 -0.022354892 0.113959365
0001e0 f1 fa 37 3c 91 eb 82 bd e4 8f c3 3c 5d e2 bb bd
       0.011229263 -0.06392587 0.023872323 -0.09174035
0001f0 fc 34 fb bd d7 0e 0b be 91 cf 17 be 2a 09 d8 bd
       -0.12265965 -0.1357988 -0.14825274 -0.10548623
000200 30 1c 3c 3c fa af cb 3d d7 72 05 3d 2e 4a 30 3d
       0.01148133 0.09945674 0.032580223 0.043039493
000210 00 8c 33 bd a6 bd 3b 3d 44 04 e6 3c e2 51 cc 3c
       -0.043834686 0.04583516 0.028078206 0.024941389
000220 24 5d e1 3c b8 9e a6 3d bc 9a 10 3d 35 80 9c 3d
       0.027510233 0.08135742 0.035303816 0.07641641
000230 7f 69 53 bd d8 aa 3e 3d d1 5a 12 3d a0 0f f9 bd
       -0.05161428 0.046549648 0.03573114 -0.12161183
000240 2e 90 e9 bb 96 1b b6 bd 8a 90 d5 bd ff eb a1 bd
       -0.0071277833 -0.0889198 -0.10427959 -0.07906341
000250 75 2d bf 3d eb b9 b0 3c 75 42 c2 3d c9 2b 59 bc
       0.09334842 0.021573028 0.09485332 -0.013255068
000260 31 58 9d 3d 59 09 1b bd df 3b e3 bd c8 84 14 3d
       0.07682837 -0.03785071 -0.11095404 0.036259443
000270 08 c9 98 3c 7f 2b 2f bd 60 ce 35 bd c3 36 bc bd
       0.018650547 -0.04276609 -0.044386268 -0.091901325
000280 cc 08 97 bc a4 95 0a 3d 7a 2f 9e bd 91 54 9b bd
       -0.018436812 0.033834115 -0.07723899 -0.07584489
000290 40 70 84 3d d5 3a 6a 3d 48 ba bb 3c 5f c5 00 3d
       0.064667225 0.057185013 0.022915974 0.031438228
0002a0 d3 27 18 3d 30 9d ae 3d 6e 90 65 3d 7f 0b 6d 3d
       0.037147354 0.08526075 0.056045942 0.05787229
0002b0 cd a9 3d bd b0 1f 05 bd 37 c0 2b bd 7d 7e 8e bd
       -0.046304513 -0.032500923 -0.041931357 -0.069577195
0002c0 49 46 99 bb 18 7f a7 bd f4 87 dd 3c 0d 5a ad bd
       -0.004677568 -0.08178538 0.027042367 -0.084644414
0002d0 ba c0 d8 bc 0d f0 a0 bd c4 d5 df bc bc ed a1 bc
       -0.026459087 -0.07858286 -0.027323611 -0.01976668
0002e0 18 25 a2 bd 3a dc 9e bd a7 c5 b9 bc a6 13 55 bd
       -0.07917231 -0.07756849 -0.022677256 -0.05202069
0002f0 70 5b 50 bd 54 d5 c5 bb 82 b8 2c 3d f5 e9 26 bd
       -0.05086845 -0.0060373936 0.042168148 -0.040750463
000300 32 b3 7a 3d 58 c4 13 bd 33 fa f1 3d f2 d4 d2 3d
       0.06120605 -0.03607592 0.118153 0.10294522
000310 77 30 ad 3d 2d 77 85 3d 79 5b 66 bd 41 ca 19 bd
       0.084565096 0.065168716 -0.05623958 -0.0375464
000320 82 42 1b bd 97 f9 b3 bd 7a 92 a1 3a 5f ce a8 bd
       -0.037905224 -0.0878784 0.0012326979 -0.08242487
000330 45 09 18 bd 39 33 0d bd 3d 21 62 3d f4 66 8f bc
       -0.037118215 -0.034472678 0.05520748 -0.017505147
000340 75 95 37 3d 4b 6c da bd 18 63 9b 3d b0 ac cc 3d
       0.044820268 -0.106651865 0.0758726 0.09993875
000350 9c 32 cc bc 3e 48 b6 3d 5e d1 9c bc 06 1f 83 3d
       -0.024926476 0.08900498 -0.019142803 0.064024016
000360 9e 0e 5b bd 81 84 46 3c d3 eb d8 bd b4 55 91 3d
       -0.053480737 0.012116552 -0.10591855 0.07096425
000370 aa 3b d5 bd 3d 69 39 3d f9 d7 2c bd 08 bd 24 3d
       -0.10411771 0.04526638 -0.042198155 0.040219337
000380 7e 7c 10 bc 82 38 a2 bd 74 49 cb bd 65 0e 64 bd
       -0.008818744 -0.07920934 -0.099261194 -0.05567779
000390 84 cb eb 3c a9 d8 53 bd ba 51 ee 3b 7f dd 77 3c
       0.028783567 -0.051720295 0.007272926 0.015128492
0003a0 08 02 3f bd 6d a3 1d bd f7 0f 05 be 4a cb da bd
       -0.046632797 -0.038485933 -0.12994371 -0.106833056
0003b0 54 fa b1 bd a4 a1 08 be 23 28 f4 bc 42 54 08 be
       -0.086903244 -0.13342911 -0.029804295 -0.13313392
0003c0 d3 56 20 3d 6a 8a 93 3d 0d 72 fd 3c 88 f8 0d 3c
       0.039145302 0.07204135 0.030938173 0.0086652115
0003d0 4c 46 ea bc 72 1a 50 bd 0e 23 94 bc 8f 64 05 bd
       -0.028597973 -0.05080647 -0.018083122 -0.032566603
0003e0 aa ca b5 3d 50 3a 54 bd 37 9a 40 3d ae 5e f8 3d
       0.08876546 -0.051813424 0.04702207 0.12127434
0003f0 08 2a 09 be e1 2f b6 bd e2 87 ea bd cc a6 66 3d
       -0.1339494 -0.08895851 -0.11451699 0.056311414

conv3.bias f4 [32]
000000 d0 6b e7 3b 6f 72 bf 3b 5d ab 3d bd 16 3e 87 3d
       0.007062413 0.005842499 -0.046306003 0.06603639
000010 fd a0 e3 bc bf 51 e2 bc a4 9f 1f bd 6b 49 54 3d
       -0.027786726 -0.02762687 -0.038970605 0.05182783
000020 c8 ff d6 bd 45 bc 85 3d a2 b0 21 3c 2c 46 38 bd
       -0.10498005 0.0653005 0.009868773 -0.044988796
000030 e0 01 ba bd e5 10 60 bc 60 a9 44 bd e6 e8 99 bd
       -0.09082389 -0.013675903 -0.04801309 -0.07515125
000040 bd b4 7c 3c 70 46 58 bd f3 b5 89 bd 67 de 4a 3d
       0.015423951 -0.05280155 -0.06724157 0.049528506
000050 a2 2a 40 bd 5d df e6 bc b1 a9 37 39 2f df 85 3c
       -0.046915658 -0.02818268 0.00017515455 0.016341774
000060 4d cf 53 bb 2a 8c b5 ba 52 01 1a 3d 2a 46 18 3d
       -0.0032319606 -0.0013850976 0.037598915 0.03717629
000070 5d e5 76 3d 42 2c 80 bd 6c ee 32 3d 62 e9 aa 3d
       0.06027733 -0.062584415 0.043684408 0.083452955

fc.weight f4 [10, 1568]
000000 84 c2 58 bc 83 cc 37 3b 2f f1 dd 3c d1 2f a8 b9
       -0.01322997 0.0028045482 0.027092544 -0.00032079083
000010 30 66 90 bc 1c eb 0c bc ed 1e 9d 3b be 6e 9c 3b
       -0.017626852 -0.008600976 0.0047949464 0.0047739437
000020 6f 50 b3 bc 38 bb 57 bd 60 18 33 bc ff d9 e7 ba
       -0.02188894 -0.05266878 -0.010931104 -0.0017688869
000030 de 51 50 bd b3 15 e2 bc 81 ec e2 bc 85 18 0b bd
       -0.050859325 -0.027598238 -0.027700664 -0.03395893
000040 05 0c 66 3b 2a 48 2f 3d 4f f2 0a 3d fb 5b ad bb
       0.003510238 0.04279343 0.03392249 -0.005290506
000050 f6 d7 8e bc 3d a9 ae bc 6f 07 26 bd 22 18 01 bd
       -0.017436963 -0.021320933 -0.040534433 -0.031517155
000060 ba 21 53 3c ba f1 7a bc 99 fa 1e 3d a7 65 2a 3d
       0.012886459 -0.015316421 0.038813207 0.04160085
000070 a4 42 0b 3c 04 8b b5 bc f1 4a 1a bd 76 c8 13 bd
       0.008499775 -0.022161014 -0.037669126 -0.036079846
000080 86 68 65 3b cc fa 32 3c cb f1 55 3d dc 92 c2 3b
       0.0035004928 0.010924052 0.052232545 0.005937917
000090 a1 cc a5 bc f5 8b 2b 3d 2b 77 8f 3b 9e 11 0e bc
       -0.020239176 0.04188152 0.0043782196 -0.008671192
0000a0 5a eb 87 3c 94 b4 de 3b f2 d9 db bc 43 d6 ef 3b
       0.016591717 0.006796429 -0.026837323 0.007319243
0000b0 a1 82 29 3b 64 20 19 bc e1 0c 48 bd 70 94 fa bc
       0.0025865214 -0.009346101 -0.048840407 -0.030588359
0000c0 61 80 be bb 75 7e 92 3c 29 93 53 3c dc e5 17 bd
       -0.005813644 0.017882565 0.012913504 -0.037084445
0000d0 81 56 c9 bc 6b c5 23 3c 80 89 d8 3a 2c cc a4 3c
       -0.024577381 0.009995799 0.001652047 0.020116888
0000e0 20 69 72 3c 9a 51 74 3b c3 ee d0 3b 0e ed 6e bb
       0.014795572 0.0037280084 0.006376119 -0.0036457214
0000f0 0b 80 21 bc 9c db 8d bc 8b 49 ba 3b 93 ab 26 3c
       -0.009857188 -0.017316632 0.0056850365 0.010172742
000100 40 e5 0c 3d 0e 1f a5 3c 1d 07 4a bd 4b 25 c9 bc
       0.034398317 0.02015641 -0.04932319 -0.024553915
000110 dc 5a 3f bd 29 dd a8 3b 54 08 4b bc b6 7d 77 bc
       -0.04671751 0.0051533175 -0.012392122 -0.015105655
000120 0b 75 80 bd 9e cc ea bc c8 26 3f bb 91 7d 1a bd
       -0.06272324 -0.028662022 -0.0029167403 -0.037717406
000130 eb 0e 1a bd b4 76 f4 bc ea 30 69 bd 3a 14 2c bd
       -0.037611883 -0.029841758 -0.056931414 -0.042011477
000140 a1 c4 55 3c 0a c4 81 3d 2f 38 0c bc 1a 54 af bb
       0.013047368 0.063362196 -0.008558317 -0.005350602
000150 1c 5d 69 bd d7 9c 3f bd 37 25 40 bd 1e a8 97 3c
       -0.05697356 -0.046780434 -0.04691049 0.018512782
000160 a6 d5 3d 3c 78 97 ea bc b3 a7 96 bc 3c c2 68 bc
       0.011586582 -0.028636679 -0.018390512 -0.014206465
000170 7f a1 ed bb 43 fb 0e 3d 73 33 6a 3c 46 25 eb 3a
       -0.007251918 0.03490759 0.014294493 0.0017940185
000180 72 be 9f bc 55 24 91 3c 91 dd 31 bc a4 03 8b bc
       -0.019499991 0.01771752 -0.010856048 -0.01696951
000190 e1 de 41 ba a5 9e 1b bc 71 e5 3b bc 4e db a3 bb
       -0.0007395577 -0.009498273 -0.011468277 -0.0050005084
0001a0 3d ad e8 bb 48 e2 d9 bc f0 46 9a b7 a8 12 df bc
       -0.0071007297 -0.026597157 -1.8391263e-05 -0.027230576
0001b0 ed 9e b3 bc 17 aa b8 3c b1 e1 7e 3c a9 61 04 bc
       -0.021926368 0.022542043 0.015556739 -0.008079925
0001c0 1d 57 b9 3b f2 98 86 bb 46 9e ff bc 48 c2 be bc
       0.0056561367 -0.004107588 -0.0312034 -0.023286
0001d0 ca e9 0f bc 1b 77 84 ba dc 1d 28 3d 64 e6 28 3b
       -0.008783767 -0.0010106297 0.0410441 0.002577209
0001e0 cc c5 3a 3c f7 7a 6d 3d b2 5b 17 3a 3d b4 ae 3c
       0.0113996975 0.057978597 0.00057738565 0.021326179
0001f0 4d 9a 06 3d ca 3f 0c 3c 48 15 79 3c fa d4 be 3b
       0.032861996 0.00856013 0.015202828 0.0058237286
000200 65 93 51 3d ac ea 53 3b ec 73 54 bc cc f0 1b 3b
       0.051165957 0.003233592 -0.012967091 0.002379465
000210 29 9b ea bb 36 4f b8 3c d2 54 e7 3b 28 46 1c 3d
       -0.00715961 0.022498708 0.007059672 0.038152844
000220 d9 83 45 bd 21 49 3d bd 77 33 8e bb fd bd 93 bc
       -0.048221443 -0.04621232 -0.004339631 -0.01803493
000230 36 9a 8d bc 57 e9 30 bd 03 10 c1 bd d2 54 b8 bd
       -0.017285448 -0.04319128 -0.09426882 -0.09000553
000240 e8 ea 84 bd b7 d2 eb bc d7 97 21 bd a4 01 18 bc
       -0.06490117 -0.028787 -0.039451446 -0.009277735
000250 28 df 52 bd 18 c6 11 bd 6b b1 e4 3b 86 5a fe bc
       -0.05148235 -0.035589308 0.0069791577 -0.031049024
000260 65 79 83 bc 66 b6 86 ba 94 08 12 bc 90 7b 5e bd
       -0.016049096 -0.0010277748 -0.008913178 -0.054317057
000270 0f 5e 9e bc 91 08 9f bc db 67 c2 bb 0f 28 ca 3c
       -0.01933196 -0.019413264 -0.0059327907 0.024677305
000280 25 66 10 bd 76 5f 5c bc 14 c2 d5 bc df 6a 67 bc
       -0.035253663 -0.013450494 -0.02609352 -0.014124601
000290 87 26 b4 ba 26 64 ce 3c f4 ea ff 3c a6 22 c8 3c
       -0.0013744392 0.025194239 0.031239964 0.024430584
0002a0 a7 00 95 3b a4 40 f5 3c 9d 08 9e 3c 05 df ae 3a
       0.004547197 0.02993805 0.019291217 0.0013341611
0002b0 32 87 e2 3c c6 50 0f 3d b6 da 23 3d a9 c3 4f 3d
       0.027652357 0.03498914 0.0400035 0.050723705
0002c0 e2 8c c7 3c fa 32 43 3c bb eb 41 bd 73 de 11 3c
       0.02435917 0.011914009 -0.04734395 0.008903134
0002d0 52 65 bb 3c 2e 0f 30 3b 4e 44 4d 3b 58 60 81 bb
       0.022875462 0.0026864517 0.003132123 -0.0039482526
0002e0 80 57 ff 3b 38 34 fc bc 03 e0 59 bc 16 dd 40 bd
       0.0077924132 -0.030786619 -0.013298037 -0.047085844
0002f0 33 ff 1b bd ae 6b 88 bc 0e 05 7a 3b fe c4 35 3c
       -0.038085174 -0.016652908 0.0038149985 0.01109433
000300 29 58 92 bc 84 37 45 bd ec 6b 74 bd c6 ac 32 bc
       -0.017864304 -0.048148647 -0.059673235 -0.01090545
000310 a2 2d e3 3c f3 72 15 bd d1 a3 8f bc 73 ab 9f bc
       0.02773172 -0.036486577 -0.017534168 -0.019490933
000320 d1 44 0d bd 4a cd 3e bd c2 c5 82 bb 40 7d f2 3b
       -0.034489457 -0.046582498 -0.0039908597 0.007400185
000330 3a a9 38 bc 27 45 40 bc a0 c9 a6 bc 0c 45 82 bc
       -0.0112708155 -0.011735237 -0.020359814 -0.015902065
000340 9f 5e e4 3b f5 44 bf bc 92 4e a6 bc e0 82 ab 3c
       0.0069692875 -0.023348311 -0.020301137 0.02093643
000350 e2 a7 ae 3c b6 5d a2 3a c0 c9 b3 bc 92 8a 8b ba
       0.021320287 0.0012387547 -0.021946788 -0.0010646156
000360 9b 6c 75 3c ca aa 8c bb 76 76 38 3c 1e d9 f1 3c
       0.014979507 -0.0042928206 0.011258712 0.029522475
000370 67 70 a8 3b 49 3c 99 bc 4f e2 6a 3b 8e fd f5 3c
       0.0051403525 -0.018705504 0.0035840457 0.03002813
000380 a0 5e e2 bb 5c c7 58 3a 02 40 3a bc ae 3b d4 bc
       -0.006908253 0.0008269453 -0.0113678 -0.025907364
000390 a1 6c e1 3b 32 a8 d6 b9 86 90 06 bd 0d 84 cb bb
       0.0068794047 -0.00040942576 -0.032852672 -0.00621081
0003a0 f5 63 9f 3b 65 cb e6 bc 3c 53 84 bc 17 cd 14 3b
       0.0048642107 -0.028173158 -0.01615297 0.002270525
0003b0 4d d6 c9 3b a0 c7 95 bd 23 aa aa bc c9 99 9a bc
       0.00615958 -0.07313466 -0.02083308 -0.018872159
0003c0 85 4f 55 bd b4 04 4c bd a2 e5 8b bd 4b 67 4d bd
       -0.05207779 -0.049809173 -0.06830908 -0.050147336
0003d0 2e 01 dd bc 93 10 29 bc 24 f3 68 bb cf 6e 09 bd
       -0.026978102 -0.010318893 -0.0035545314 -0.03355294
0003e0 e8 96 b2 b8 ca 0b 4f bc 7a 21 69 3b 6c 68 c4 bc
       -8.51581e-05 -0.012637088 0.0035572932 -0.023975573
0003f0 ce 01 63 bc ad 7b b6 3c 00 18 b5 bb 39 a7 56 3c
       -0.013855411 0.02227577 -0.0055265427 0.013101392

fc.bias f4 [10]
000000 4f ef 3f 3c 6b 2f 18 3d 03 d8 2a bc 2e a4 7f 3c
       0.01171477 0.037154596 -0.010427478 0.015603108
000010 4f ee 83 3c 14 9b c4 bc 44 5f 7f bc 6a d3 a3 3c
       0.016104845 -0.023999728 -0.015586678 0.019998271
000020 6b 80 a8 bb 28 d4 4b bc
       -0.0051422617 -0.012440719

bn1.weight f4 [8]
000000 94 34 81 3f 38 c7 77 3f 3b 38 84 3f e3 8c 76 3f
       1.009417 0.9678836 1.032966 0.96308726
000010 3f bf 85 3f 36 df 77 3f d1 be 75 3f 1a 34 7b 3f
       1.0448989 0.9682497 0.9599429 0.98126376

bn1.bias f4 [8]
000000 14 28 e6 bc bd f8 d9 3b 32 f5 05 bd 98 39 21 bd
       -0.028095283 0.0066519664 -0.03270454 -0.039361566
000010 d3 0e 1e bb 6f a6 31 bb ec 85 4a bd 69 d9 8c bd
       -0.0024117723 -0.0027107259 -0.049444124 -0.06877405

bn1.running_mean f4 [8]
000000 2a 5c 67 3d ab b5 0b bd c2 9b 62 be 6c 71 31 3d
       0.05648438 -0.0341088 -0.2212973 0.04332106
000010 8f f2 9a be 5d 89 29 3e de 11 73 3e 72 fd 95 be
       -0.30263183 0.16556306 0.23737285 -0.29294926

bn1.running_var f4 [8]
000000 f2 ef bb 3e 82 2b 16 3e 20 49 27 3e e0 f4 ba 3f
       0.367065 0.14665034 0.16336489 1.460598
000010 62 06 ee 3d b2 52 e2 3e cf 0c d0 3e 3f df 1e 3e
       0.11622311 0.44203717 0.40634772 0.15514849

bn2.weight f4 [16]
000000 73 b8 84 3f d3 2b 8a 3f 82 11 86 3f 83 32 88 3f
       1.036879 1.0794624 1.0474093 1.0640415
000010 d9 0c 84 3f 32 cf 89 3f de 15 8a 3f 80 88 87 3f
       1.0316421 1.0766356 1.0787923 1.0588531
000020 09 69 8b 3f c6 19 87 3f 0c 41 87 3f f2 54 8b 3f
       1.0891429 1.055474 1.0566726 1.0885298
000030 a4 93 89 3f ca e1 87 3f a8 11 8e 3f 55 84 87 3f
       1.0748181 1.061578 1.1099138 1.058726

bn2.bias f4 [16]
000000 ba f5 8e bc 4f 56 47 bc 7c fe b8 3a e9 06 03 3d
       -0.017451156 -0.012166574 0.0014113928 0.031989012
000010 94 cd ad bc 0c a4 b0 3c 4c a2 de 3c 18 fa c6 bb
       -0.021216191 0.021562599 0.027176999 -0.006072294
000020 6f de f2 3c 42 33 dd bc df 39 ff 3c d9 ab ee bc
       0.02964708 -0.02700198 0.031155525 -0.029134678
000030 9a ed 45 3c 3a 1d dc bc 1b 35 e1 3c 54 6c 32 3d
       0.012080574 -0.026869405 0.027491143 0.04356034

bn2.running_mean f4 [16]
000000 e1 fd c6 3e a4 ad 0f be e2 66 69 bd a2 79 e7 3e
       0.3886557 -0.14031082 -0.056982882 0.45209986
000010 4d 88 75 3e ee 4c ac bd 29 18 8f 3b fa 49 15 bd
       0.23977776 -0.08413111 0.004366894 -0.036447503
000020 a6 ad 61 3d 25 3d 3d 3e 7f fe e0 bd 3e 0d 92 3d
       0.055097245 0.18480356 -0.10986041 0.07131432
000030 75 56 60 3e 8e 20 e9 3d 64 72 0b be b0 5f 2b 3e
       0.2190798 0.113831624 -0.13617855 0.1673572

bn2.running_var f4 [16]
000000 5c fe 93 3e 61 0a 85 3d 46 3e c8 3d b5 93 94 3e
       0.28904998 0.0649612 0.09777503 0.29018942
000010 00 7f f2 3e cc b5 10 3e 30 b4 90 3d a2 71 3f 3e
       0.47362518 0.1413185 0.07065618 0.18695691
000020 ed ce 11 3e 96 f7 ce 3d e1 f7 d0 3d 4a 24 c1 3d
       0.14239092 0.10105817 0.10203529 0.0943075
000030 9b c6 57 3e bc c9 cb 3d f2 96 35 3d c2 63 60 3e
       0.21071856 0.09950587 0.044333406 0.21913055
